python_backend/aqi_model.tflite (tflite, 162596 bytes, 10 tensors)

arith.constant f4 [64]
00000000: cb67 19bc 9cec 3fbb a066 b5bb b21c ad3b
00000010: d4a2 47bb 799b b13a 1cc5 26bc 10c2 b5bb
00000020: 0000 0000 68b1 a2bb 107c b5bb 250c 3ebc
00000030: 875a b5bb 2530 48bc 0904 b6bb 5f08 4a39
00000040: 8d76 c9b9 301c 1abc ee53 27bc 9468 f0ba
00000050: 70f6 80bb 4298 23bc cfe9 47bb cc7b 83bb
00000060: 0000 0000 8822 a2bb 5fb1 35bc c963 e5bb
00000070: 47a6 0fbc c649 da3a 7692 aabc 9a15 a43b
00000080: 8aed 22bc e499 cc3a 8c93 5cbb df65 edbb
00000090: e4b0 12bc 0000 0000 b513 ad3a 787e 95bb
000000a0: 965c f53a f409 9abb 40e3 82bc a8e7 08bc
000000b0: 5b4e 91bb e2e3 cfbb 8ed1 df3b 862e d33b
000000c0: 8348 203b 3fc3 31bc 1683 493a 186d 9c3b
000000d0: 6718 b6bb 6ab9 b53b fb76 4dbb 94c0 253b
000000e0: 5a62 903b 486c 91bc 0e70 0ebc 0000 0000
000000f0: b72f 1e3a 4a0c 71bc 6914 13ba 0000 0000
-0.009363125 -0.0029285317 -0.0055359155 0.0052829618 -0.0030462043 0.0013550363 -0.0101788305 -0.0055468157
0.0 -0.004964996 -0.005538471 -0.011599575 -0.0055344733 -0.01221851 -0.0055546802 0.0001926734
-0.00038426035 -0.0094061345 -0.0102128815 -0.0018341714 -0.0039356276 -0.009985032 -0.003050435 -0.0040125605
0.0 -0.004947964 -0.011089652 -0.0070004207 -0.008767671 0.0016654066 -0.020821791 0.005007458
-0.009944329 0.0015609828 -0.003365728 -0.00724481 -0.008953307 0.0 0.0013204726 -0.0045621954
0.0018719609 -0.0047008935 -0.015977502 -0.008356012 -0.0044343895 -0.0063443044 0.006830401 0.006444755
0.0024457283 -0.010849773 0.0007687075 0.004773747 -0.005557108 0.0055457847 -0.0031351435 0.0025291787
0.0044062557 -0.017751828 -0.008693708 0.0 0.0006034332 -0.014712403 -0.00056106463 0.0

arith.constant1 f4 [32]
00000000: 0506 a5ba 0000 0000 a69b 39bb 0000 0000
00000010: 1b04 a5bb 0000 0000 0000 0000 880c 6ebc
00000020: f323 2c3b 5914 d03b 3eb8 fb39 e171 05bc
00000030: 4b15 17bc 08ed b33a d342 0dbb f96f c9bb
00000040: bdd1 48bb 6544 05bc 9f9c 16bc 5e8b 643b
00000050: f4ef bf3a a6d9 cebb 6f89 b9bc 0000 0000
00000060: 0000 0000 ddf2 98bb 9cbe db3b 0000 0000
00000070: 200c e2ba ff61 6cbc cdb0 273b 3f7f 783b
-0.0012590295 0.0 -0.0028321533 0.0 -0.00503589 0.0 0.0 -0.014529355
0.0026266545 0.006350082 0.00048011722 -0.008144827 -0.009221385 0.0013727257 -0.0021554723 -0.0061473814
-0.0030642592 -0.008133982 -0.009192615 0.0034873108 0.0014643655 -0.006312567 -0.022648541 0.0
0.0 -0.0046676234 0.006706072 0.0 -0.0017246045 -0.014427661 0.002558756 0.0037917641

arith.constant3 f4 [64, 1, 3, 32]
00000000: a60c 61bc 8ea3 38bd aa97 57bc b0f8 7a3d
00000010: 10a8 7d3d 3ec8 f1bd c097 d23b 30b2 0c3e
00000020: 2158 d2bd da4b 80bd 3e24 9dbd cf56 7d3d
00000030: 40d9 9c3b 96b9 18be dad9 ad3c ad36 f03d
00000040: 71f8 01be 949b 173d 002a 8f39 aced 15be
00000050: df01 ec3d 1ec2 efbd 05fe 5dbd ec1f 12be
00000060: 4046 0b3e c8f3 c43c 6ca8 5a3d 781c 7abd
00000070: 0d1d 0b3e 9e23 983d 46ed a1bc 5e1f 013c
00000080: d432 f1bd b167 85bd 91cd e83c bce8 27bd
00000090: a941 d1bd 18b3 353d 5c6f 2b3d 8e9e 8f3d
000000a0: 6975 a63d dc69 cfbd 453f babd ceb5 6dbc
000000b0: 89bd 153d 8b3c 91bd 74ac 9cbd 1345 a03d
000000c0: a7db 443d fa2d 50bd 5c36 b93c ae12 6bbc
000000d0: 832c 913d 9d78 dcbd 9bc8 d73d e0dd a23d
000000e0: 7ec3 eabd d0a9 e2bd b4d1 033e 20de a03d
000000f0: 5b7e 9d3d f1e6 b2bd 251d 683d 4373 093e
00000100: 458b 8dbb 3af8 973d 0fba fc3c b4d4 19bd
00000110: 3d56 c6bd 205a 013e bcd7 21bd 2fec 853d
00000120: 0d1c c1bc 8213 b53d 7180 d9bd ce7d e0bd
00000130: 8e60 983d 79b0 c8bd ee0b dfbd 94a6 ffbc
00000140: ac9e 053e c6ca 553d 8795 c33d a0ee db3c
00000150: 7181 a03d e771 0dbd 55e3 d93d 6463 08be
00000160: ec6e e03d 1e4c 8abd 9519 01be 90d4 2abc
00000170: aa5e 75bd d473 113d 072c b9bd 7e02 4dbc
00000180: 72da 213b 9be6 a1bd 36b7 ffbd b0b0 afbd
00000190: 763c 803d 7182 05be 30c8 f03d 01ed abbd
000001a0: 18c5 afbd bd47 7b3d 5265 fd3c ef6f e23d
000001b0: ce1e a0bc 33da f7bd 7193 9c3d a811 f63d
000001c0: b69b 04be be83 003e a9a6 cc3d 0f9c 5abb
000001d0: 03bf 9b3d bba9 f3bd 7482 ff3c 6450 f43d
000001e0: 808c a23d e68a d43d fdb4 e23d c050 2a3c
000001f0: d638 6f3d 6ec0 5bbd 8651 b63d fc28 4c3d
00000200: 5395 883d 513b dabd b99a 833d 2f03 efbd
00000210: 093a 04be c630 0f3e 764c b2bd 4c72 98bd
00000220: 42e8 ecbd 56dd c73d 04d9 0bbe 8a4c 2e3d
00000230: cb22 073e a4a6 6dbd df1e bf3d e160 d83d
00000240: 02c2 55bd 99be 13bd 8fe8 1dbd 3946 863d
00000250: 5162 19bd bca0 f1bd 9dc1 4e3d 30b0 813d
00000260: b092 583c 303d c2bd 2c9e 9f3b 9008 243c
00000270: 3807 13be e497 0fbe 5a53 a03c 9fa8 513d
00000280: 81e7 0bbe c2fb a9bd d731 98bd d6c8 a43d
00000290: 9e60 b4bd 20f9 cc3d 5f3c cebd 0ff4 cdbd
000002a0: 204d eabd 0af3 61bd 9140 f33d fea0 d5bc
000002b0: d5ba e23d 9a65 c53d 65d3 263c f1fc ac3d
000002c0: a327 083e 05ea d83d 98a9 bcbd c6bc 8e3d
000002d0: 44f0 533d c9dd 14be 6aa0 efbd c02f a63b
000002e0: 8ce2 e13d 5576 05be 6ccd 11be 8012 2abb
000002f0: 2b03 173d ede9 993d b103 92bb 5185 843d
00000300: 9298 c7bd 6e62 27bd 7f1e 9cbd ac54 f23d
00000310: 34c0 08be 005c 123e 369f a13d 2296 a03d
00000320: 5bee ff3d 837a b83d 4866 973c c4c2 e93d
00000330: e8b7 cfbc d9d4 b7bd b522 f43d 105c 81bd
00000340: 4c73 6dbd deac d5bd f4c9 9d3d 716c 12be
00000350: 9aee a8bd 20cf 963d 7ede a8bd c01b af3b
00000360: fd77 89bd 5ccb e2bc 4063 273c 581f e43d
00000370: 1a1a b03d 1ca2 c8bd 93ea c93d 1bc8 dabd
00000380: 53e0 013e c896 ca3c 4171 fabc f8d4 253d
00000390: 9880 dd3d 8e41 1dbd 88db f5bd 4493 733d
000003a0: e14c 97bc 50e6 b2bd 3e62 07be ecf3 613d
000003b0: 6527 d6bd f9c6 2cbd 6ecc e3bd ddc1 c2bd
000003c0: 84a1 cb3d 9825 903d 3817 8fbc 67e4 f93d
000003d0: fb88 15be 072d dbbd 3c32 b5bd e06f 0c3e
000003e0: e4b7 da3d aca0 833d 5d00 9cbd 64ce 573d
000003f0: da79 063e d82b 113e 0625 5038 d7f5 a1bd
-0.013735926 -0.045077853 -0.013158718 0.061272323 0.061927855 -0.11805771 0.0064267814 0.13739848
-0.102707155 -0.062644675 -0.07672928 0.061850365 0.0047866404 -0.14914545 0.021222044 0.117291786
-0.12692429 0.037013605 0.00027306378 -0.14641446 0.115237944 -0.11706947 -0.05419733 -0.1426999
0.13601017 0.024042025 0.053383276 -0.061062306 0.135853 0.074286684 -0.019766461 0.007881014
-0.11777273 -0.06513918 0.028418334 -0.040993437 -0.10217602 0.04436025 0.041854247 0.07012664
0.08127863 -0.10127613 -0.09094099 -0.014508678 0.036557708 -0.07091626 -0.0765008 0.07825675
0.04806104 -0.050825097 0.022608928 -0.014347715 0.07088568 -0.10765193 0.10536309 0.079524755
-0.114630684 -0.110675454 0.12872964 0.07854867 0.07690116 -0.08735455 0.05666842 0.13422875
-0.0043195807 0.07420392 0.030850438 -0.037556365 -0.096844174 0.12632036 -0.03951238 0.06539189
-0.023572946 0.088416114 -0.106202014 -0.10961495 0.07440291 -0.097992845 -0.10890947 -0.03120736
0.1304881 0.052195333 0.095500045 0.026847184 0.07837189 -0.034532454 0.10639063 -0.13319165
0.10958657 -0.067527995 -0.12607415 -0.010426655 -0.05990473 0.035510853 -0.09041601 -0.012512801
0.0024696854 -0.07905313 -0.124861166 -0.08578622 0.06261532 -0.1303804 0.11756933 -0.08394814
-0.085825145 0.06134771 0.030932102 0.11056506 -0.019545939 -0.12102165 0.0764531 0.120150864
-0.12950024 0.12550256 0.099927254 -0.0033357178 0.07604792 -0.11897608 0.031190135 0.11929396
0.079369545 0.10378055 0.11069677 0.010395229 0.058403812 -0.053650312 0.08902268 0.049843773
0.06669106 -0.10655845 0.064259954 -0.11670529 -0.12912764 0.1398345 -0.0870599 -0.074436754
-0.11567737 0.09759013 -0.13657004 0.042553462 0.13196866 -0.05802025 0.0933206 0.10565353
-0.052186973 -0.03607044 -0.038551863 0.06556363 -0.037447277 -0.11798236 0.050477613 0.06332433
0.013218567 -0.09484327 0.0048711505 0.010011807 -0.14358222 -0.14022785 0.019570995 0.0511862
-0.1366253 -0.08299972 -0.07431381 0.08046119 -0.08807491 0.10008454 -0.100701086 -0.10056316
-0.11440492 -0.05516342 0.118775494 -0.026077744 0.11070792 0.096385196 0.010182236 0.08446682
0.1329637 0.10591511 -0.09212035 0.069695994 0.051742807 -0.1453773 -0.117005184 0.00507161
0.110295385 -0.13033421 -0.14238518 -0.0025950968 0.036868256 0.07515321 -0.0044560065 0.064707406
-0.09745897 -0.040865354 -0.07623004 0.11832556 -0.1335457 0.14292908 0.07891695 0.078411356
0.124966346 0.09007742 0.018481389 0.11414102 -0.025356248 -0.08976144 0.11920682 -0.06316388
-0.057971284 -0.104333624 0.07704535 -0.1429918 -0.08248635 0.07363725 -0.08245562 0.005343884
-0.06712339 -0.02768486 0.010216534 0.11138791 0.085987285 -0.09796545 0.098591946 -0.10682698
0.12683229 0.024730101 -0.030571582 0.040486306 0.10815543 -0.038392596 -0.12004763 0.059466615
-0.018469276 -0.08735335 -0.1322107 0.055164263 -0.10456733 -0.042181943 -0.11122976 -0.09509633
0.09942916 0.070384204 -0.017467126 0.122017674 -0.14603035 -0.10701948 -0.08847472 0.13714552
0.106796056 0.0642713 -0.07617257 0.052687064 0.1313242 0.14176881 4.9625545e-05 -0.07908218

arith.constant4 f4 [32, 1, 3, 3]
00000000: 37d2 e8bc 23f3 f6bd 72f6 8c3d 439b 5a3e
00000010: 8abb 9d3c 2295 d3bd 483a 07bd 7480 173e
00000020: d415 50be 75a1 543e d637 01be dd9a 2a3e
00000030: d797 003e f2c1 ea3d 821d f2bd 7461 18be
00000040: 6248 70be e4de 7f3d 3498 473d df08 67be
00000050: 18d6 a3bd d550 bc3d e7bd dcbd e673 393d
00000060: 8470 fb3d 8430 ba3d 4f78 333e d767 153e
00000070: 485a f33c 3312 193e 5882 ecbc 9493 e7bd
00000080: 1a15 f3bd 315b 3b3e ea28 1bbe 0008 e0ba
00000090: 4530 053e 8c2f 603e b6b8 e23d 28de 4ebd
000000a0: 597b 21bd 2ec4 84bd 3df9 803a a079 a5bc
000000b0: cee7 4bbe f8bb 3cbe 56a7 9ebd 6088 adbd
000000c0: 4357 2b3e 5ac8 e73d 1fdf 293e b570 13be
000000d0: c3cd 3cbe 1016 7dbd d482 6dbd dbe3 053e
000000e0: 6cef 60bd dab0 38be 750d 4ebe 5c08 b5bd
000000f0: 01b6 4b3e 7ed4 e6bd 32db 24be 8009 ed3a
00000100: f84d 13be c2a2 0fbe 2fe8 483d 5f19 e5bd
00000110: 0501 023e bde6 47bd 43d0 1b3e 8f00 9f3d
00000120: 869b 2abe 8832 07be 7d8f 3c3e f8f3 34be
00000130: b01d edbd e603 d63d 59ff 273e 7192 203d
00000140: e559 3cbd aa9e 203d eec9 583e b3f3 e73d
00000150: d1a8 72bc e2b1 873d aad3 083e 6aa4 1ebe
00000160: 167f 2fbe 4d7f 4fbd 9866 18be 00c0 2cbe
00000170: 1ac3 c43d f591 143e d6ec 6e3e 12c9 94bd
00000180: a54c 9d3d c027 053e db6d 6ebe f132 28be
00000190: 5ce3 3c3e d24e b23d 1ef4 4fbe 9ac8 2e3e
000001a0: e2d5 903b ae0d bdbc 9e1c 4dbe 7df0 273e
000001b0: 893b 95bd 1a69 223e 8128 37be 7278 4a3e
000001c0: 47a4 bdbd 4563 36bb eed1 59be a000 503e
000001d0: 7c59 643e 9e58 d83d ab39 fbbd 28f0 e4bc
000001e0: db4c 23be 67aa 6fbe 6eb6 133e 33e0 0bbe
000001f0: f5b1 4a3e 844f b23d 2275 e3bd 5483 54bb
00000200: ef63 fa3d 1c2d 043e b53a 203e a89b 093d
00000210: 535e 113e e06b 04bd 7c97 9b3c b662 42be
00000220: 2d88 153e 9a1b 41bd 46ee 32bd 008d 6f3e
00000230: dfd2 4f3c e4c0 133e cd9b 27be aada 413c
00000240: ef4a a4bd af3b 3a3e b819 76be 51c7 123e
00000250: be7b c63d 023e fa3d 950e c3bc ef4a a0bc
00000260: 1a9e d23d 9d82 533e 0654 e2bd 3459 53be
00000270: 74ca cf3d 501c 0b3e 8368 37be 7087 503e
00000280: 96e7 24bc 4dbf 3b3e 8566 58be e4b9 43bd
00000290: 4d8d 1b3e e9a4 31be 6aa9 90bd 4cff 44bd
000002a0: 0c4f 4a3e e01c 853d 82d9 f1bd be37 933d
000002b0: 1036 61bd d019 1cbe d931 f63c 7688 533c
000002c0: 4d60 0fbe d17d 19bd ec7e c13c 4d84 023c
000002d0: 397d 613e 59ab 09be aa46 a6bd 9240 213c
000002e0: 2376 03be a6de b7bc 1527 df3b 2493 553e
000002f0: 5af9 c7bd a686 ecbd 5a31 803d c84a 4dbe
00000300: 84d6 b63c adcc c4bc e101 1f3e 739c e03c
00000310: d42e 143e 32a6 443e 931a 043e a338 62be
00000320: 66ea 4fbe f281 76be d9ca 18bd 339f ae3d
00000330: 1850 7b3d 5260 333e 3ce7 54be ce48 cc3d
00000340: 64d6 92bd b0d4 26bd 2627 2abe ecf1 19bd
00000350: 7886 a83c 9819 59be 7802 3bbd c0ce f3bd
00000360: eab2 c53d 71d3 073e d001 16be b279 f73d
00000370: 8639 a8bd c42c 41be cc9f 3d3d 6984 03be
00000380: 2663 dd3d 8b74 4d3e 98a5 a33c e215 163e
00000390: b6b7 853d 7841 413e d4c3 3b3e 1025 16be
000003a0: 3499 bfbd dfdd 1cbd bf87 e4bd 7a98 22be
000003b0: 0c23 823e 393c 63be 30b4 1c3e c992 593e
000003c0: 009a 263e 7bd9 243e 8c0d 35be 7811 51be
000003d0: 22d1 27be b4ee 6d3d 0b75 063e 9889 6dbd
000003e0: 5e4a a1bd 7044 73bc 4afa 6bbe 6dd6 243e
000003f0: 9fcc a43d b330 693e c908 a3bd f65f 6fbd
-0.02842055 -0.120580934 0.06882943 0.2134829 0.019254465 -0.10331179 -0.033014566 0.14795095
-0.20320827 0.20764716 -0.12618956 0.16660638 0.12557922 0.114627734 -0.118220344 -0.14880925
-0.23465112 0.062468424 0.048729137 -0.22561978 -0.079998195 0.09195105 -0.107784085 0.045276545
0.1227732 0.09091285 0.17526363 0.14590393 0.029706135 0.14948349 -0.028870746 -0.11307445
-0.11869259 0.18296506 -0.15152326 -0.0017092228 0.13006695 0.21893138 0.11070387 -0.050504833
-0.039424274 -0.06482731 0.0009839904 -0.020199597 -0.19912645 -0.1843108 -0.077467605 -0.08473277
0.16732506 0.11317511 0.1658902 -0.14398463 -0.18437867 -0.06178862 -0.057986096 0.13075201
-0.05491583 -0.18036214 -0.20122321 -0.08839485 0.19893648 -0.112709984 -0.16099241 0.0018084496
-0.14385211 -0.14026931 0.049049553 -0.1118648 0.12695701 -0.048804034 0.15216164 0.077637784
-0.1666089 -0.1320287 0.18414111 -0.17671192 -0.11577928 0.10449962 0.16406001 0.039202157
-0.045984168 0.039213814 0.2117078 0.11325779 -0.014810757 0.06625725 0.13361993 -0.15492406
-0.17138323 -0.050658513 -0.14882886 -0.16870117 0.09607525 0.14508803 0.23332533 -0.072649136
0.076806344 0.13003445 -0.23284094 -0.16425683 0.18446106 0.0870644 -0.20307967 0.17068711
0.004420028 -0.023077812 -0.20030448 0.16400333 -0.07286746 0.15860406 -0.17886545 0.19772509
-0.09259849 -0.0027830165 -0.21271488 0.20312738 0.2229976 0.105637774 -0.12266859 -0.027946547
-0.15947287 -0.23404847 0.1442506 -0.13659744 0.19794448 0.08706573 -0.11106326 -0.003242691
0.12226092 0.12907833 0.15647395 0.03359571 0.14196138 -0.03232944 0.018993132 -0.18982968
0.14602728 -0.047145464 -0.043684267 0.23393631 0.012684553 0.1442905 -0.16368027 0.011831919
-0.08022105 0.1818683 -0.24033248 0.14333846 0.09691571 0.12218858 -0.023810664 -0.019566981
0.10284062 0.20655294 -0.110511824 -0.20639497 0.10146037 0.13585019 -0.17910962 0.20364165
-0.01006498 0.18334694 -0.21132858 -0.0477847 0.1519062 -0.17348064 -0.07063563 -0.048095033
0.19756716 0.06499648 -0.118090644 0.07188366 -0.0549832 -0.15244222 0.030053066 0.012910953
-0.1400158 -0.037473504 0.023620091 0.007966113 0.22020425 -0.1344427 -0.08118947 0.009842055
-0.12838034 -0.022445034 0.006810079 0.20856911 -0.09764357 -0.1154912 0.06259413 -0.20048058
0.022319086 -0.024023378 0.1552806 0.02741835 0.14470989 0.19204023 0.12900762 -0.22091918
-0.2030426 -0.24073008 -0.037302826 0.085264586 0.06135568 0.17517212 -0.20791334 0.09974824
-0.07169798 -0.04073018 -0.16616496 -0.03758423 0.020571932 -0.2120117 -0.04565665 -0.11904669
0.09653266 0.13264252 -0.14649129 0.120837584 -0.08214097 -0.18864733 0.046294972 -0.12843479
0.10809927 0.20063989 0.019976422 0.14656785 0.06529181 0.1887263 0.18336421 -0.14662576
-0.09355393 -0.03829753 -0.11158704 -0.15878478 0.25417364 -0.22190942 0.15303111 0.212474
0.16269684 0.16098587 -0.17680949 -0.2041682 -0.16388372 0.058088973 0.13130586 -0.057992548
-0.078755125 -0.01484786 -0.23044696 0.16097422 0.08046841 0.22772484 -0.0796066 -0.058441125

arith.constant5 f4 [3, 64]
00000000: 5e03 2cbe 3628 193c c8aa 413e f0e5 c03b
00000010: ac41 3cbe 1971 45be 5b3c 2f3e bfe6 41be
00000020: ee59 8bbe 7ba9 4dbe 5b8e e33c 6b95 f2bd
00000030: a023 983e e8fa 0f3d 832c 93be 3b0e 8d3e
00000040: 1a88 78be e2e4 a1bd f6e8 30be 5263 253d
00000050: 8afa 7d3e 5f20 cd3c ded3 cc3d adbf db3d
00000060: 508b 893d 6407 493d 74ac 42be c866 0f3e
00000070: 4de5 623e cc9a d33d f372 debd 4e57 b13d
00000080: c7d7 623e b08c 453e a060 963e 84e8 623d
00000090: 5d2d 19bd 2cd8 733e 2410 163e 2053 9bbc
000000a0: 8b44 06be f35f 3e3d e56e 633e 25ab 2ebe
000000b0: 21f1 a4bd 759e 4fbe 0a92 893e 9b05 2ebe
000000c0: 0e02 8a3e d7da 50be e399 ae3d b654 0d3e
000000d0: 75d4 ae3c 888c e6bd e35c 8dbd 6614 debd
000000e0: 7f18 34be 6b15 8abe a48e 043e 9d72 14be
000000f0: b71e cebb a93a 8c3e 5085 933e 5e5b 18be
00000100: 95ba 74bd 846e 03be 7d57 afbc 896f 943e
00000110: 35b2 1f3e a651 0abe 75c7 66bd 5091 71be
00000120: 8ad9 5cbe c729 8bbe 0afe 59be d8cc 2abe
00000130: 6a09 c0bd 6e4d 913e f036 81be e9fb c6bc
00000140: f98b acbc 81e5 86bb 55e7 8fbe c35b 3f3e
00000150: 4aa7 e7bd 0356 383d 2c88 af3c 1d4a 8bbd
00000160: 2bdf 31be 8d1b 3c3e c54b 783e ece0 1d3d
00000170: 1ff7 e9bd 6121 9ebd 2569 4e3e 9005 073e
00000180: 09f8 813e a7ba 87bd 33c2 993e 225a 8a3e
00000190: 8ffa 41be e4d1 76bd daf3 863e 9f10 5b3e
000001a0: d3ae 553e a51a 6bbe 863c 043e 2510 8d3e
000001b0: 42f2 d6bd edc9 5f3e 71b0 34bd 4fcb 74bd
000001c0: fd54 a7bc a709 64be 6625 ddbd daa6 86be
000001d0: 2bf5 7d3e cc2b e53c ee46 553e 155c 89be
000001e0: d769 71be 06ae 5f3e 6764 01be 7329 173e
000001f0: 325a 1b3e 907f 2cbb f601 173d 88c8 933d
00000200: 47a6 213e 30a0 8dbe a525 123e 86f0 833e
00000210: b559 83be e0b0 943d 0de0 8b3e b11e 50be
00000220: 83a5 793e ab6f 81be 3ddb 31bd 18c5 04be
00000230: 13a0 4ebe d8d6 fb3d a8d5 1e3d d48e 863e
00000240: 39ac 69be 0a7d 49be 6b98 5bbe 9d7c 3a3e
00000250: 383c 05bd 2a9e d43d 55fc 9c3c f1c7 05be
00000260: 1052 dabd 71af 5b3c 2c4c d83d 2def 1fbc
00000270: 4b53 8bbe bd71 693e 164b 4e3e 384c 3dbd
00000280: c10c 7d3d 2424 62be 564a 4dbe 4ff1 1c3e
00000290: 9341 23be 8836 b13d ec5c 12bd b512 81be
000002a0: f04a 8f3e 11fc f33c deba 763e fe12 65bd
000002b0: a349 41bb 9172 78be fe40 653e 05f8 87bc
000002c0: 3977 92bc 04fc 70be fb12 dbbc e222 81be
000002d0: 958a 863e 595c 02be 27c4 e4bd c24c 4fba
000002e0: fcfe 85be 26ae 0c3e 3f93 f0bd ede4 1fbe
000002f0: c14d 6e3d 35cd e4bd 7458 573e 0ba2 703e
-0.1679816 0.009347966 0.18912804 0.0058867857 -0.18384427 -0.19281425 0.17112868 -0.18935679
-0.27217048 -0.20084183 0.027777841 -0.118449055 0.2971468 0.035151392 -0.28744897 0.2754992
-0.24270669 -0.07904984 -0.17276368 0.040377922 0.24802604 0.02503985 0.10001348 0.10729919
0.06716025 0.049079314 -0.19011098 0.14004052 0.22157784 0.103322595 -0.108617686 0.0865923
0.22152625 0.1929195 0.29370594 0.055397525 -0.037396777 0.23812932 0.14654595 -0.018960536
-0.13112085 0.046478223 0.22210272 -0.17057474 -0.08053804 -0.2027529 0.2686923 -0.16994326
0.26954693 -0.20395981 0.08525445 0.13801846 0.021341542 -0.11257273 -0.06902482 -0.108437344
-0.1758747 -0.26969466 0.12945038 -0.14496846 -0.0062902826 0.27388504 0.28812647 -0.14878604
-0.05974825 -0.12835127 -0.021404022 0.28991345 0.15595324 -0.13507709 -0.05634256 -0.23590589
-0.2156736 -0.2718031 -0.21288314 -0.16679704 -0.093767956 0.28379387 -0.25237226 -0.024290042
-0.021062838 -0.0041167145 -0.2810618 0.18687348 -0.11311205 0.045003902 0.021427236 -0.06801245
-0.17370288 0.18369885 0.24247654 0.03854458 -0.11424088 -0.0772121 0.20157297 0.13185716
0.25384548 -0.06627398 0.30030975 0.2702189 -0.18943237 -0.06025876 0.2635792 0.21393059
0.20867471 -0.22959383 0.12913713 0.2755138 -0.10495426 0.21854372 -0.04411358 -0.059764203
-0.020426268 -0.22269307 -0.10798149 -0.26299173 0.24800555 0.027974986 0.20827839 -0.26828066
-0.23575531 0.21843728 -0.12635957 0.14761905 0.15171126 -0.002632115 0.036867104 0.07215983
0.15786086 -0.27661276 0.14272173 0.25769442 -0.2565438 0.07260299 0.27319375 -0.20324208
0.24379544 -0.25280508 -0.043421973 -0.1296581 -0.20178251 0.122968376 0.038777977 0.26280844
-0.22819604 -0.19676605 -0.21444862 0.18211599 -0.032528132 0.1038173 0.01916329 -0.13064553
-0.106601834 0.013408528 0.10561404 -0.009761614 -0.27211985 0.22797294 0.2014583 -0.046215266
0.06177974 -0.22084099 -0.20047888 0.15326427 -0.15942983 0.08652979 -0.03573315 -0.25209585
0.2798686 0.02978328 0.24094722 -0.055926315 -0.0029493354 -0.24262454 0.22388074 -0.016597757
-0.017879115 -0.23533636 -0.026742449 -0.25221926 0.26277605 -0.1273054 -0.111702256 -0.0007907861
-0.261711 0.13738307 -0.11746835 -0.15614672 0.05817962 -0.11171953 0.21029836 0.23499314

arith.constant6 f4 [64, 128]
00000000: 9bc7 153e 6c4e 15be f09a bebd 6a7d 44bb
00000010: e09b 30be 7277 173e bac6 163d f5f1 833d
00000020: f05d 0c3e f0e1 173d 004f 97bd 8491 6d3d
00000030: c6a1 683c 71af b2bd 9bd9 243e cd35 25be
00000040: 4e45 5cbd bbfa 093e d9ce 28be c193 213e
00000050: c6ce de3d 2292 89bd 6370 c7bc 08a6 0abe
00000060: 8eca 33be 06a1 ac3d 06c0 0abe 7334 8bbd
00000070: 11d5 6fbc b929 0b3c e2ef 293e fc04 eb3d
00000080: 5037 d63c fa94 863d 97a5 a13d 3e2b 29be
00000090: a236 88bc ace3 f53c ae95 1dbe f8f7 9e3d
000000a0: 460c 24be 6d21 25bd ca28 01be 61bc b9bd
000000b0: d938 8abc 95bd 0f3d e910 afbc b411 ea3d
000000c0: cbfc b0bd dd4e fabc 411e cebc 4fe9 a7bd
000000d0: 76e2 13bd 0232 7d3d 6d43 1c3c d80f ae3c
000000e0: 5a9f c13d 4a34 81bd 9668 89bd 46f5 25be
000000f0: e9ea 0ebd 53a1 6cbd bfac 29bd b630 fbbd
00000100: 4c91 d9bd 16f8 183d de42 c43b e84f 18be
00000110: bde2 fc3b d14e 35bd 1671 d53d ab80 c5bd
00000120: a76e 333e 2be7 05be b508 61bc 3cef 5cbc
00000130: 80e5 d1bc 1f92 e4bd a9d7 f13c 8cd2 743d
00000140: 6b50 8abd 65c2 073e eb70 d2bd 6435 3d3d
00000150: 707d a7bc 5617 d9bd ca3f c7bd f5d0 2d3e
00000160: 7b8c 61bc d8ac d13d f328 0a3e 0ebf 83bb
00000170: 3256 943d e80b 583d 0415 863d 3893 d3bc
00000180: 7ff4 f3bb 01a7 18bd b04c 233e 3b3b 29be
00000190: db2d 43bd 7033 da3d a0bd b3bd 5eae 64bd
000001a0: ee37 18be 8730 c9bd d822 1cbe 3f0b 023e
000001b0: 9fbf 093e 30b0 063e 0002 82bc 2187 c2bb
000001c0: b2c3 80bd c6d2 ebbb 596a 263c 14d9 d83d
000001d0: 7d3a 76bd 367c 263e f1dd 053e da6d 88bd
000001e0: 1df7 c13d c2cd 343d 08b9 a4bd a13e de3d
000001f0: 4f97 43bd 0f87 c5bd 64d4 883d 61a6 3d3d
00000200: e0ec 053d d848 fa3c d04f 543d 19e1 233e
00000210: 60da 15be c0ce 11bb e1c9 593d f11b e13d
00000220: d2e9 ae3d b8fb dc3c e0da 2ebc f8a8 463d
00000230: f049 a0bd 5a7b 813d 907f 3b3d 87df 343e
00000240: 6d60 08be d59f 263e e7b8 8abc 8f16 adbd
00000250: 50a2 3f3d 80eb fbbc 50ec 6a3d cba1 053e
00000260: 6411 603d 583e 1f3d 0167 2abd ff0e 31be
00000270: 80f9 2cbd 1c37 1dbd 9a63 f23d 9193 0bbe
00000280: b4c7 cf3d fc74 21be 5419 ce3d 6b1e 173e
00000290: 5e58 22be 407b 4c3d cc37 46bd a939 823c
000002a0: 1515 313e 605f 72bc fee4 e83d 5400 03be
000002b0: 6133 08be 843e 4ebd c02f 233b a2f2 ffbd
000002c0: 895b 9ebb 30dd 1dbd 105b 21bc 3a5d d7bd
000002d0: 31cf 31be f0ac a9bc 28f7 023d ee7f 85bd
000002e0: fea6 39be a1f8 aabd 1d4c 7c3c 4912 283e
000002f0: 9b9e 30be 0645 d0bd 7ec9 073e df32 0a3e
00000300: b7d9 243e 64cf 2f3d ce31 adbd 6d16 ee3d
00000310: ad28 32be 8bd3 8abc 72dc 9fbd b914 01be
00000320: 6859 253d 69b8 633c 2ce0 12be 50a9 24be
00000330: 6490 7fbd bebe 243e 4380 2fbe 3aab 25be
00000340: 4433 b6ba cbe8 e7bd 621c dc3d 82e9 b03d
00000350: 60ad 8d3c 5408 dbbd 1e6a 14be 606e c63c
00000360: de4b 6ebd 2e65 95bd 805d 18be 78d3 f23b
00000370: eb0f 263e a2a1 e43d 9160 9ebc f990 343e
00000380: 17f1 b7bd 9666 c5bc bdae 123e 7424 ccbd
00000390: 7ebc 1cbe ce29 78bd fed7 e13d 1f71 b4bd
000003a0: 850c 6e3d 4aad 7cbd 1ab4 a23d 4fe6 d93b
000003b0: 1e6a 7fbd 8815 1d3e 3414 35bd 6cc1 9a3d
000003c0: d0da 67bd 78b4 fdbc e935 a33d 1aa0 92bd
000003d0: fe23 10be 587a f5bc e823 49bd 605a bd3c
000003e0: d318 953d 5358 28be 12d8 963d 0158 8e3d
000003f0: c333 b1bd 8071 20be 4ccd 483d 68ec 103d
0.14626925 -0.14580697 -0.09306896 -0.002998198 -0.17246962 0.14791659 0.036810614 0.06442634
0.1370771 0.037080705 -0.07388115 0.058000103 0.014198726 -0.08724869 0.16098635 -0.16133805
-0.05377703 0.13474552 -0.16485156 0.1577902 0.10879283 -0.06717326 -0.024345582 -0.13539898
-0.17557737 0.0842915 -0.13549814 -0.06797113 -0.014638201 0.008493834 0.16595414 0.1147556
0.026149422 0.06571384 0.07892912 -0.16520402 -0.016627613 0.030015789 -0.1538913 0.0776214
-0.16020307 -0.04031508 -0.12613216 -0.090691335 -0.01687281 0.03509291 -0.021370368 0.11429158
-0.086419664 -0.030555183 -0.02516091 -0.08198797 -0.03610464 0.06181527 0.00953756 0.02124779
0.09454222 -0.063088015 -0.06709401 -0.16206846 -0.034891997 -0.05777104 -0.04142451 -0.1226515
-0.10623416 0.03734597 0.0059894165 -0.14874232 0.007717459 -0.04426462 0.1042196 -0.09643682
0.1752268 -0.13076465 -0.013734986 -0.013484772 -0.02562213 -0.11160683 0.02952178 0.059771106
-0.0675362 0.1325775 -0.10275444 0.046193495 -0.020445555 -0.10600154 -0.09728964 0.16974242
-0.013766403 0.102380455 0.13492183 -0.004020578 0.07243003 0.05274573 0.06546977 -0.025827035
-0.0074449177 -0.037268642 0.15947223 -0.16526501 -0.047651153 0.10654342 -0.087764025 -0.055830352
-0.14865085 -0.09823709 -0.15247667 0.12699603 0.13452004 0.13153148 -0.015870094 -0.005936519
-0.06287326 -0.007196757 0.010157191 0.10588279 -0.060114373 0.1625832 0.13072945 -0.066615775
0.09470961 0.04414154 -0.080431044 0.10851789 -0.04775172 -0.09644901 0.06681135 0.04630125
0.032696605 0.030552313 0.051833928 0.16003837 -0.14634085 -0.0022248477 0.053171042 0.109916575
0.085406914 0.026975498 -0.010672301 0.048500985 -0.078266025 0.063223556 0.04577595 0.17663394
-0.13318034 0.16271909 -0.016933871 -0.08451568 0.046785653 -0.030751944 0.05735427 0.1305
0.054704085 0.038877815 -0.04160214 -0.17290877 -0.04223013 -0.038382635 0.11835404 -0.13630511
0.10145512 -0.15767282 0.10063425 0.14757697 -0.15854022 0.049922228 -0.048393056 0.015896635
0.17293198 -0.014793247 0.11371802 -0.12793094 -0.1330085 -0.05035259 0.0024900287 -0.124974504
-0.004832689 -0.03854102 -0.009848371 -0.105158284 -0.17364193 -0.020712346 0.031973988 -0.06518541
-0.18130109 -0.083482035 0.015399006 0.16413225 -0.17248003 -0.10169415 0.13260457 0.13495968
0.16098677 0.042922392 -0.08456765 0.11625371 -0.17398329 -0.016946575 -0.078057185 -0.12605561
0.040368468 0.013898947 -0.14343327 -0.16080213 -0.06239356 0.16088387 -0.17138772 -0.16178599
-0.0013900776 -0.113236986 0.10747601 0.08638288 0.017294586 -0.10694948 -0.14493605 0.024222553
-0.05817782 -0.07294689 -0.14879417 0.007410463 0.1621701 0.111636415 -0.019333156 0.17633428
-0.08981531 -0.024096768 0.1432447 -0.099678904 -0.15306279 -0.060586743 0.11027525 -0.08810639
0.05811741 -0.0616887 0.07944508 0.0066497694 -0.06235706 0.15340245 -0.04420872 0.075564235
-0.05660516 -0.030969843 0.07969267 -0.07159443 -0.1407623 -0.029965565 -0.04910651 0.023114383
0.072801255 -0.16439943 0.07365431 0.06950379 -0.08652451 -0.15668297 0.04902391 0.035381705

arith.constant7 f4 [128, 192]
00000000: a9d6 53bc 5541 5c3d 1d2b f63d 54c4 3abd
00000010: 4698 7e3d 7c17 dd3d f0b8 7a3d 80f0 f6bd
00000020: 6068 c43c c8f5 2abd 7907 db3d bb8d d63d
00000030: 97d1 433d 0aa7 4cbd 9d1c 26bd af4c 993d
00000040: ffc4 d13d 3815 d03c 037f f8bd a52b aabd
00000050: 400a f8bb 82b6 eebd c9ff 8bbd 2a97 8e3d
00000060: b8dd 253d f656 773d 82b8 89bd a391 aabd
00000070: 8e54 febd 3a40 d4bd d2ea 83bd b716 713d
00000080: 25b1 37bc 786a 78bd 9803 00bd a093 54bc
00000090: ef25 ebba a793 01be ee4c 3abd 04a3 97bd
000000a0: d234 35bc ec3a 27bd 668a 0fbd e0bb 94bd
000000b0: f445 2bbd fa60 c33c 1a0e c43d ce8e 933c
000000c0: b85e e23d c01b 253c 6f3b f43d 1e49 113d
000000d0: f06a bf3d bdb9 d2bd 215b c53d 0714 7fbd
000000e0: c6cb 9abd f1f5 01be 7279 79bd 8fc4 9ebd
000000f0: 1237 a13d edc4 e93d 3591 8a3c 1290 2ebd
00000100: 3f53 07be 0bbc 8ebc b023 21bd 4903 963d
00000110: 215e cebd 3077 6a3d e8d7 5f3d a65a de3d
00000120: c0bd a03d 1005 49bc f6cb a3bd 2f47 febd
00000130: 8534 8a3d 23b3 9fbd 701a 213c 8570 9cbc
00000140: 62b1 c9bc 7c13 ec3d 6582 dbba c1b9 9c3d
00000150: 0ece 873d 4d01 8bbd 2b16 beba 0e03 d43d
00000160: cc19 063e c865 723d b533 7fbc d0d8 213d
00000170: 9685 ce3d 15be e93d 3112 7b3d 8516 9dbd
00000180: e213 09be 67af cfbc 0c86 60bc 904b d73d
00000190: 1ce5 0dbe 0c28 5b3d 3969 d73d 5f23 e53c
000001a0: dea5 903d 734a 003e 4149 29bd c4df babd
000001b0: 0ed1 3e3d e12f 633d 5b6f f4bb 827f d43d
000001c0: 126f 90bd 8008 263d d3ff 443c 96ac dc3d
000001d0: 560c 72bd 6558 14be 27d9 17bd 7e38 ab3d
000001e0: 196e ab3d d475 f23d f162 8d3d 404c 65bc
000001f0: 6963 ed3d a09e 83bd 0371 2bbc 8cd6 3bbd
00000200: 64e4 40bd 6cb3 a5bd 2444 f63d 2029 b13b
00000210: 73fc 01be 2e04 e93c b67e bdbc 80eb bb3a
00000220: bc93 b63d 4aa0 813c 002b d03b 2c34 e93d
00000230: c5f1 163d 6442 c93c 5077 763c 53f2 5abd
00000240: 8004 75bd 2477 a23d 79a3 c63d 322c 3ebd
00000250: 80b6 81bc 7858 6c3d a876 d7bc 5e9f 573d
00000260: 9cc6 abbd 8de0 debd f9ac eabd 98fe c53c
00000270: 44eb a63b 2839 b4bc 1a42 043d 7732 133d
00000280: 1529 00be 959d e53c 6e02 fabc a667 be3d
00000290: 4c62 cd3d a069 503d 64fe 6c3d 4e0a cfbd
000002a0: 5450 b43c c13e f3bd 3d56 9a3d b53c f7bc
000002b0: 795e 1f3b 5c8a ef3d aa5b a13d d8af 363d
000002c0: dc4f 633d 4f37 fe3d 87c9 d6bd efb7 99bd
000002d0: ece6 68bd 6792 80bd 5831 d03d b21d ce3c
000002e0: 300a fe3c 7597 c83d 2d75 c9bc 2c6e 05bd
000002f0: 99dc 0bbe 502c ae3d cf53 afbd 60a9 03be
00000300: 9851 efbd 1077 b4bd 50be 3abc 6cf4 c5bd
00000310: 3ee4 bf3d dc13 563d 5b88 00be 0e51 f2bd
00000320: d32c e3bd 0c82 913d d309 bfbd ccde 693d
00000330: 885b 2d3d f4e7 293d 860f 933d ac13 943d
00000340: f0e8 fb3c 00e1 373b d44a 0fbd d808 f1bc
00000350: 5203 99bd d0d9 393d 6cce 623d d8cf c43c
00000360: 80c6 2d3b 9a69 2dbd f069 623c ec80 513d
00000370: 4466 11bd 44ed 803d da0e 0c3e 6cf8 9bbc
00000380: 08a3 37bd 8003 ea3c 6040 75bd c496 fe3d
00000390: 4084 563b 2804 8d3d 969e 47bd 0010 5cbb
000003a0: 91e8 92bd b336 a0bd 1ae7 78bd 064c b5bd
000003b0: 0f44 0bbe 2041 bbbd 74be 50bd f28d 9d3d
000003c0: f8b2 273d be0a b13d 85d7 d7bd de89 c63d
000003d0: 20b7 10bc 90c4 7cbd 6967 83bd 4478 eebc
000003e0: a297 2abd a060 c93d fcd8 0b3e 9a94 93bd
000003f0: c47d 303d d0e2 f03d c4a9 d33d 9022 babd
-0.012929597 0.053773243 0.12019942 -0.04559739 0.062156938 0.10795495 0.061211526 -0.120575905
0.023975551 -0.0417383 0.10694785 0.10476252 0.047807302 -0.04996399 -0.04055463 0.07485329
0.10242652 0.025400743 -0.121336006 -0.08309106 -0.0075695813 -0.11655904 -0.068358965 0.06962426
0.04049465 0.060385667 -0.06724645 -0.08328559 -0.12418471 -0.10363813 -0.06441273 0.058859553
-0.011211668 -0.06064841 -0.031253427 -0.01297465 -0.0017940382 -0.12653981 -0.045483522 -0.0740414
-0.011059957 -0.040827677 -0.035044096 -0.07262397 -0.04181476 0.023849953 0.09573002 0.01801243
0.110532224 0.010077417 0.119253986 0.03547012 0.093465686 -0.10289333 0.09636522 -0.06227496
-0.07558398 -0.12691475 -0.060906835 -0.07752334 0.07871832 0.11414514 0.016914943 -0.042617865
-0.1321535 -0.01742365 -0.039340675 0.07324845 -0.100765474 0.057242572 0.054649264 0.108571336
0.07848692 -0.012269273 -0.07997887 -0.12415921 0.067482986 -0.077978395 0.009832963 -0.019096622
-0.024620716 0.11527154 -0.0016747235 0.07652617 0.06631099 -0.067873575 -0.0014502456 0.10352145
0.13095778 0.059179097 -0.015576293 0.03951341 0.10084073 0.114132084 0.061296646 -0.07670311
-0.13386491 -0.025352193 -0.013703834 0.10512459 -0.1385693 0.05350499 0.105181165 0.027970968
0.07062887 0.125284 -0.041329626 -0.09124711 0.04658609 0.055465583 -0.0074595637 0.10375883
-0.07052435 0.04053545 0.012023884 0.10775106 -0.059093796 -0.14486845 -0.037072327 0.083603844
0.08370609 0.1183888 0.06903637 -0.01399523 0.115912266 -0.0642674 -0.010463956 -0.045858905
-0.04709281 -0.08090863 0.120247155 0.005406514 -0.12693958 0.028444376 -0.02313171 0.0014337152
0.08914897 0.015823502 0.0063527822 0.11386904 0.036851663 0.02456779 0.015043095 -0.053453755
-0.059818745 0.079328805 0.09699149 -0.046428867 -0.015834093 0.057701558 -0.026301697 0.05264222
-0.08387491 -0.108826734 -0.11458773 0.024169251 0.005093964 -0.02199991 0.0322896 0.0359368
-0.12515672 0.028029243 -0.030518737 0.09297113 0.10028514 0.05088198 0.057859793 -0.10109387
0.02201096 -0.11877204 0.0753598 -0.030180315 0.0024317785 0.11696312 0.07878812 0.04460129
0.05549608 0.12412893 -0.10487657 -0.07505786 -0.05686085 -0.06277924 0.101656616 0.025160644
0.031010717 0.09794513 -0.024592007 -0.03257577 -0.1365837 0.08504546 -0.08560907 -0.1285758
-0.11685485 -0.08811772 -0.011397913 -0.096657604 0.093697056 0.052265033 -0.12552015 -0.11831866
-0.11092534 0.071048826 -0.09328046 0.05709724 0.04232362 0.041480973 0.07180695 0.072303146
0.030750722 0.0028057694 -0.03498347 -0.029423162 -0.074713364 0.045373738 0.05537264 0.024024889
0.002651602 -0.042337038 0.013819203 0.05114834 -0.03549792 0.06295255 0.1367754 -0.019039355
-0.044833213 0.028566122 -0.059875846 0.124311 0.0032732636 0.06885558 -0.048735224 -0.0033578873
-0.07173265 -0.07822933 -0.06076727 -0.08852391 -0.13600181 -0.09143281 -0.05096288 0.076930895
0.040942162 0.08644627 -0.10539154 0.09694265 -0.008832723 -0.061710894 -0.06416208 -0.029110081
-0.041648515 0.09832883 0.13656992 -0.07206078 0.04308869 0.11762011 0.103351146 -0.090886235

arith.constant8 f4 [3]
00000000: 9b63 a83c 2cbf ce3c 7894 bd3c
0.020555308 0.025237642 0.023142084

arith.constant9 f4 [128]
00000000: cd6e 87bc fb0d c4bb 317a 1539 2232 58bc
00000010: 0000 0000 2442 9f3b 5cb8 403b d02d 3dbc
00000020: 417d 6e3b 92ba c4bb 24a1 dfbb d001 603c
00000030: 1552 92bb 1453 743b a521 1eba 0000 0000
00000040: 7d03 5c3b e8f0 bcbb f413 a33b 4527 f0bb
00000050: 89e3 abbb de5e cebb 199a 0f3c a88e 0abc
00000060: 3a17 aa3b 0000 0000 117b 1c3c d5e3 133c
00000070: 11a2 33bc 25a4 21ba 9c62 13bc 2bd7 893c
00000080: cb70 1dbb 3b3d 45bc 9335 14bc 0000 0000
00000090: c1d2 30bc 6c7b c23a 45ec 2bbc 3ef9 c73b
000000a0: 6634 ac3b 6baf a2ba 336a 09bc a1c3 3fbc
000000b0: 7571 f73b fb82 e7bb b62d 8fbb b99a 53bc
000000c0: 09f7 b5ba a72b 2b3c 3f34 30bc 0000 0000
000000d0: 9989 dd3a 0063 233c 4bc7 09bc 0000 0000
000000e0: 451c 6ebc 0000 0000 6be8 4e3c 0000 0000
000000f0: 93ca 9d3b 1030 4bbb eab1 c4bb 0000 0000
00000100: bd28 c2bb df40 c4ba 29c4 bf3a 0361 36bc
00000110: a86a e03b c6d5 c53b 0000 0000 2be0 18bc
00000120: 0000 0000 5eb3 cf3b 3c00 103c 23e5 7bbc
00000130: aa81 c4bb e706 32bc 6bdb babb f1ba 503c
00000140: 75a9 093c 820f 643c a0d6 16bb 0000 0000
00000150: a0a7 7eb9 61f3 5d3b 0000 0000 0000 0000
00000160: 6a11 09bc 4089 c4bb 4a40 1dbc 76b5 2cbc
00000170: 0000 0000 0000 0000 90aa bb3b 0000 0000
00000180: e7b2 213b 8f6c bdbb b626 803b 1191 c4bb
00000190: 3ac9 ea3b 96da aa3b 0000 0000 9423 48b9
000001a0: aa67 733a a12d e03b 8189 bfbb 58f9 4d3c
000001b0: 3a68 01bc 93cb 32bc 0000 0000 a85d 22bc
000001c0: 1ba4 c63b 2820 a83b 32a0 85ba 1131 05bc
000001d0: 464c cd3b 8102 03bc a8c7 c0bb c95d c9b9
000001e0: d5cd 503c 8433 6f3b dd12 573b 53ec 113a
000001f0: 8e9c 06bc e7bd 09bc 77cf 73bb ff01 4ebc
-0.016532326 -0.005983112 0.00014255267 -0.013195546 0.0 0.0048601795 0.0029406762 -0.011546567
0.0036390575 -0.006003686 -0.0068246294 0.013672307 -0.0044653513 0.0037280964 -0.0006032235 0.0
0.0033571415 -0.005766023 0.004976744 -0.0073289 -0.00524563 -0.00629793 0.008764767 -0.008456863
0.005190757 0.0 0.009550826 0.009026487 -0.010963933 -0.0006166122 -0.008995678 0.016826233
-0.0024023529 -0.012038524 -0.009045976 0.0 -0.010792435 0.0014837808 -0.010493343 0.00610271
0.00525527 -0.0012411898 -0.008387136 -0.011704356 0.007551367 -0.0070651746 -0.004369463 -0.012915307
-0.0013882826 0.010447419 -0.010754644 0.0 0.0016901969 0.009972334 -0.008409332 0.0
-0.014533107 0.0 0.012628655 0.0 0.0048154085 -0.003100399 -0.0060026543 0.0
-0.0059252665 -0.0014972946 0.0014630604 -0.011131528 0.006848652 0.0060374467 0.0 -0.00933079
0.0 0.006338521 0.008789118 -0.015374455 -0.0059969025 -0.010865903 -0.005702426 0.012739883
0.008402218 0.013919713 -0.002301611 0.0 -0.00024285773 0.003386699 0.0 0.0
-0.008365968 -0.005997807 -0.009597847 -0.0105413105 0.0 0.0 0.0057271197 0.0
0.0024673284 -0.0057807635 0.0039108647 -0.0059987386 0.0071651014 0.0052140458 0.0 -0.0001908674
0.00092851615 0.006841377 -0.005845249 0.012571655 -0.007898385 -0.010912794 0.0 -0.009910025
0.0060620434 0.0051307864 -0.0010194837 -0.008129374 0.006265196 -0.007996202 -0.005883176 -0.00038407583
0.012744387 0.0036499212 0.003281764 0.0005566526 -0.0082160365 -0.008407093 -0.0037202516 -0.012573718

arith.constant10 f4 [64]
00000000: db58 70bc 10b8 c4bb 5944 9b3c c3f9 993c
00000010: 7b02 19bc 8721 35bc c0d2 6a3c af5b 24bc
00000020: 43aa c4bb 500e fdbb 6f06 3dbc 41eb 24bc
00000030: 6ee3 eb3b 0000 0000 0829 41bc add8 593c
00000040: b624 3fbc 2e6b 82bc 823f 08bc be65 4a3c
00000050: 10f3 4fbb 0ae4 b93c 22f9 2e3c e591 d1bb
00000060: 0000 0000 4ce2 8e3c 6251 b1bb 6574 843c
00000070: 18b5 4fbc 7e3d d0bb 6f84 4e3c 87e9 0d3c
00000080: ae8b 5e3c c4d7 b9ba 3389 cd3b 1c52 d03b
00000090: 3f0b 57bc 0000 0000 ff9c 9d3c e263 82bc
000000a0: 387f bd3a cdc2 68bc 97c4 523c d672 26bc
000000b0: 2d7c 16bc 7cb5 78bc bd31 8c3c 22b4 c4bb
000000c0: 80aa 323c 1897 10bc 3fa5 84bc aa80 26bc
000000d0: e24b 953b 1ee5 3dbc e1c2 dcbb 115e f5bb
000000e0: 705e 32bc 5198 ebbb 846a 24bb 3f8b 6bbc
000000f0: 3faa a93c 523d 26ba aaf8 593c 6c8a 233c
-0.014669622 -0.0060033873 0.01895349 0.018795853 -0.00933897 -0.011055357 0.014332473 -0.010031625
-0.006001742 -0.0077226534 -0.011537178 -0.0100658545 0.0071987426 0.0 -0.011789568 0.013296288
-0.011666467 -0.015920248 -0.008315923 0.012353359 -0.003173057 0.022691745 0.010679515 -0.006395566
0.0 0.017441891 -0.005411313 0.016168782 -0.012677453 -0.0063549867 0.012604817 0.008661634
0.013583107 -0.0014178683 0.006272459 0.0063574445 -0.01312524 0.0 0.0192399 -0.015916768
0.001445747 -0.0142066 0.0128642535 -0.010159215 -0.009184879 -0.015179988 0.01711356 -0.006002919
0.010904908 -0.008825086 -0.016192077 -0.010162512 0.004556165 -0.01159027 -0.0067370986 -0.00748802
-0.0108867735 -0.0071897884 -0.0025087902 -0.014376461 0.020711062 -0.0006341535 0.013303915 0.009981733
